…
          "base_uri": "https://localhost:8080/"
        },
        "id": "Cna71FlFEVC3",
        "outputId": "5de5d657-3879-4205-9d5d-84640fc21f5c"
      },
      "execution_count": 25,
      "outputs": [
        {
          "output_type": "stream",
          "name": "stdout",
          "text": [
            "Model: \"sequential\"\n",
            "_________________________________________________________________\n",
            " Layer (type)                Output Shape              Param #   \n",
            "=================================================================\n",
            " rescaling_1 (Rescaling)     (None, 180, 180, 3)       0         \n",
            "                                                                 \n",
            " conv2d (Conv2D)             (None, 180, 180, 16)      448       \n",
            "                                                                 \n",
            " max_pooling2d (MaxPooling2  (None, 90, 90, 16)        0         \n",
            " D)                                                              \n",
            "                                                                 \n",
            " conv2d_1 (Conv2D)           (None, 90, 90, 32)        4640      \n",
            "                                                                 \n",
            " max_pooling2d_1 (MaxPoolin  (None, 45, 45, 32)        0         \n",
            " g2D)                                                            \n",
            "                                                                 \n",
            " conv2d_2 (Conv2D)           (None, 45, 45, 64)        18496     \n",
            "                                                                 \n",
            " max_pooling2d_2 (MaxPoolin  (None, 22, 22, 64)        0         \n",
            " g2D)                                                            \n",
            "                                                                 \n",
            " flatten (Flatten)           (None, 30976)             0         \n",
            "                                                                 \n",
            " dense (Dense)               (None, 128)               3965056   \n",
            "                                                                 \n",
            " dense_1 (Dense)             (None, 19)                2451      \n",
            "                                                                 \n",
            "=================================================================\n",
            "Total params: 3991091 (15.22 MB)\n",
            "Trainable params: 3991091 (15.22 MB)\n",
            "Non-trainable params: 0 (0.00 Byte)\n",
            "_________________________________________________________________\n"
…
